…
4796089 events read in 10 files in dir /eos/user/k/kiwoznia/data/VAE_results/events/run_113/qcd_sqrtshatTeV_13TeV_PU40_NEW_EXT_signalregion_parts
qcd all: min mjj = 1200.0001220703125, max mjj = 7285.58154296875
training on 1917939 events, validating on 1917940

training QR for quantile 0.1
Model: "functional_1"
_________________________________________________________________
Layer (type)                 Output Shape              Param #   
=================================================================
input_1 (InputLayer)         [(None, 1)]               0         
_________________________________________________________________
Std_Normalize (StdNormalizat (None, 1)                 0         
_________________________________________________________________
dense (Dense)                (None, 60)                120       
_________________________________________________________________
dense_1 (Dense)              (None, 60)                3660      
_________________________________________________________________
dense_2 (Dense)              (None, 60)                3660      
_________________________________________________________________
dense_3 (Dense)              (None, 60)                3660      
_________________________________________________________________
dense_4 (Dense)              (None, 60)                3660      
_________________________________________________________________
dense_5 (Dense)              (None, 1)                 61        
=================================================================
Total params: 14,821
Trainable params: 14,821
Non-trainable params: 0
_________________________________________________________________
Epoch 1/100
7492/7492 - 25s - loss: 0.0250 - val_loss: 0.0242
Epoch 2/100
7492/7492 - 25s - loss: 0.0240 - val_loss: 0.0241
Epoch 3/100
7492/7492 - 26s - loss: 0.0239 - val_loss: 0.0239
Epoch 4/100
…
