…
[DataReader] read_jet_features_from_dir(): reading all events from /eos/user/k/kiwoznia/data/VAE_results/events/run_113/RSGraviton_WW_BROAD_13TeV_PU40_3.5TeV_NEW_parts
499756 events read in 2 files in dir /eos/user/k/kiwoznia/data/VAE_results/events/run_113/RSGraviton_WW_BROAD_13TeV_PU40_3.5TeV_NEW_parts
training on 1917983 events, validating on 1917984

training QR for quantile 0.1
Model: "functional_1"
_________________________________________________________________
Layer (type)                 Output Shape              Param #   
=================================================================
input_1 (InputLayer)         [(None, 1)]               0         
_________________________________________________________________
Std_Normalize (StdNormalizat (None, 1)                 0         
_________________________________________________________________
dense (Dense)                (None, 60)                120       
_________________________________________________________________
dense_1 (Dense)              (None, 60)                3660      
_________________________________________________________________
dense_2 (Dense)              (None, 60)                3660      
_________________________________________________________________
dense_3 (Dense)              (None, 60)                3660      
_________________________________________________________________
dense_4 (Dense)              (None, 60)                3660      
_________________________________________________________________
dense_5 (Dense)              (None, 1)                 61        
=================================================================
Total params: 14,821
Trainable params: 14,821
Non-trainable params: 0
_________________________________________________________________
Epoch 1/100
7493/7493 - 27s - loss: 0.0251 - val_loss: 0.0239
Epoch 2/100
7493/7493 - 25s - loss: 0.0240 - val_loss: 0.0239
Epoch 3/100
7493/7493 - 25s - loss: 0.0238 - val_loss: 0.0244
Epoch 4/100
…
