…
Step 25100: lr 1.1123911514143714e-10, loss 18043.845703125
Step 25200: lr 1.1116207260242206e-10, loss 26720.37890625
Step 25300: lr 1.1108509251345211e-10, loss 18257.828125
Step 25400: lr 1.110080083410736e-10, loss 26296.251953125
Model: "model"
_________________________________________________________________
Layer (type)                 Output Shape              Param #   
=================================================================
input_1 (InputLayer)         [(None, 1)]               0         
_________________________________________________________________
feature_normalization (Featu (None, 1)                 0         
_________________________________________________________________
dense (Dense)                (None, 70)                140       
_________________________________________________________________
dense_1 (Dense)              (None, 70)                4970      
_________________________________________________________________
dense_2 (Dense)              (None, 70)                4970      
_________________________________________________________________
dense_3 (Dense)              (None, 70)                4970      
_________________________________________________________________
dense_4 (Dense)              (None, 1)                 71        
_________________________________________________________________
feature_un_normalization (Fe (None, 1)                 0         
=================================================================
Total params: 15,121
Trainable params: 15,121
Non-trainable params: 0
_________________________________________________________________
None
